models/rt_transformer_model.pth (torch, 179896 bytes, 10 tensors)

emb_layers.0.weight f4 [36, 18]
00000000: 2076 16bd b76b 0dbe 3336 d5bf d56d dcbf
00000010: c611 cb3e 9bc6 d53f 4551 a53f d6ce 1fbf
00000020: 3221 a63f 47dc 5b3e 3389 abbd c082 d2bf
00000030: d6fc ca3f 92f6 31bf 0275 b3be f16c 3140
00000040: 6d9f 9bbd 486b 14be 843d 593f d20f 3b3d
00000050: 437d a93f 0841 babf d81f ab3f 71ab 32be
00000060: 7131 cc3e d8c5 b3bf f159 0b40 a30f ef3f
00000070: d087 1d3e 61f9 9dbf 91cf e0be 9173 9a3d
00000080: 6ef1 d7bd 2c9b 1d40 ee1a 023d dd44 54bf
00000090: 4ef5 28bf 51f8 51be 3bb7 a73f 01d6 81bf
000000a0: f90a 953f ef6d b73f d6c2 8cbf b194 a8bf
000000b0: 1569 41bf 17fb c03e ea18 f2bf 7353 f33e
000000c0: bfe5 cdbf 85bd 983d 00e8 863f bb72 063f
000000d0: 4950 36c0 2498 8a3d b022 54bf 6297 d53f
000000e0: 16dc bcbf f17b 163e f553 ff3e 5943 4bbf
000000f0: 8ecc 68be 53a4 22bf 2baa 0b40 0eb2 0140
00000100: dfac 74be 0484 81bf 5890 8f3f fa74 44be
00000110: 155c 683f 24c7 063e 6f91 79be c95b 9cbf
00000120: 6634 023f 691e f3be c028 933f 9854 35bf
00000130: 9474 943f a953 19be 093b 56bf 2537 8f3e
00000140: 8faf f53e 6ee2 693f 2dc1 8b3e 0a14 2a3f
00000150: 1846 833e a9a9 edbe 4602 bc3d 3b97 c33f
00000160: 1c76 23c0 dea0 f3be d1f3 c8ba 50a0 89be
00000170: 3b31 1740 2fcb a73f 981f a6bf b89e 24bf
00000180: 93c8 183f 533f db3f aa4f 0a40 fa3c 6fbf
00000190: d74b 8cbf 1bee 453e b497 fbbe 6de0 30c0
000001a0: f187 bbbf 1ba1 833e ee89 373e 83de 8c3d
000001b0: 0098 f43f 891f 06bf 6ea3 1240 859a d9bf
000001c0: fd4a 4fbe 3c4c 80bf fefe 933f 4a38 9ebf
000001d0: 66b6 ab3e 1222 723f 9566 aa3f 7931 7fbf
000001e0: 275c e3be 387a d43e 76df 31bf 1e61 96bf
000001f0: da4a bcbe bb77 113f 3341 b73d ebdb c2bf
00000200: 10c4 abbf 8b7c cfbe de0e 5740 e19e 843f
00000210: 5073 7fbe 3593 35bf 28f5 59bf 7036 c43f
00000220: 5a95 34bf d4c1 113f 66f6 a23f ac25 79bf
00000230: 287a 0cbf 0c59 eb3d 9264 82bf 0d11 c5bf
00000240: 92f1 8abf 54f6 54bf 3def 093f 8c86 863f
00000250: ed8d c6be 246d a9bf 5382 3fbd 8920 9c3f
00000260: f88e 1abe dde6 573f f53c d23f 2769 1dbf
00000270: 007c dbbe dd7b a33d bc55 303f 84b4 d13f
00000280: c30b 8d3f efd4 b93e a34b bd3f 7d67 a73e
00000290: 626e 843f 4c3d 9fbe e5a0 d63f b4b7 aabe
000002a0: 9ed4 5cbf 1566 8bbe 7a89 d13f 2a59 4c3f
000002b0: df87 1a3f 6225 6abf a460 87bf 22d7 9cbf
000002c0: d792 63bd ec0f cfbe 45b8 abbf 8a12 c43e
000002d0: c992 45be 9102 04c0 d643 693c 8213 f43e
000002e0: 3238 f73f 4dbb e23f 1751 a7bf 2eae b6be
000002f0: 8835 be3f bef7 8f3d 0801 aabf 32c6 b7be
00000300: 15e2 0f3f 9c59 a9be 32c9 a3be 833a d5be
00000310: 84a5 533e b7f5 93bf abbd 3cbe e24f 29bf
00000320: dcd8 2440 276b 613f 914e a33e 8a45 c03f
00000330: cc36 d1bf 2a63 19be 545f 8abe 4b43 9f3f
00000340: 5dc5 f7be 5578 30bf dae7 103e 6674 06c0
00000350: 4366 8fbd e7df 403e bd2a 19bf 0c9a 0e3f
00000360: a7db 9e3f 0bb7 ad3e 9f6f 29bf 165d 4dbf
00000370: 525b be3f 1703 1540 04b4 0ebf aec1 0b3f
00000380: 4b7d 573f 5524 823f 0b0e 663f 946d cabf
00000390: 5b37 0d3f 30ee 9f3e 6bbd 8c3f 6f85 4b3e
000003a0: 3fa4 893d d7c0 9fbc 51f0 813f 3aaf 10c0
000003b0: fe7e d3be ae88 3fbf 5059 c73f 9954 19bd
000003c0: 0ba9 e23f 5f75 f9bf dfcd 833f 96cc c03f
000003d0: 7496 653f a7b0 01c0 d3fd e23f 5356 19bf
000003e0: c8a0 b8bf e78e c13f 32f4 3e3f 2b66 2bbf
000003f0: 38e5 783f 91d5 e6bf c032 1f40 99b2 26c0
-0.036733747 -0.13810621 -1.6657165 -1.7221018 0.39661998 1.6701235 1.2915426 -0.6242498
1.297888 0.21470748 -0.08375778 -1.6446152 1.585841 -0.6951686 -0.35050207 2.7722743
-0.075987674 -0.1449405 0.8485949 0.045669384 1.3241352 -1.4551096 1.3369093 -0.17448212
0.3988147 -1.4044752 2.1773646 1.8676647 0.1538384 -1.2341729 -0.4390836 0.07541574
-0.10544096 2.462596 0.031763963 -0.8291758 -0.65999305 -0.20504881 1.3102793 -1.0143434
1.1643974 1.4330424 -1.0996959 -1.3170377 -0.7555097 0.37691566 -1.8913853 0.47524604
-1.6085738 0.07458023 1.0539551 0.52518815 -2.8486502 0.067673 -0.8286543 1.6686823
-1.4754665 0.14695717 0.49868742 -0.7939964 -0.22734281 -0.6353199 2.1822612 2.0264926
-0.2389407 -1.0118413 1.1215925 -0.19185248 0.90765506 0.13161904 -0.24371885 -1.2215511
0.50861204 -0.4748414 1.1496811 -0.70832205 1.1598077 -0.1497332 -0.8368383 0.2797176
0.47985503 0.9136113 0.2729582 0.6643683 0.25639415 -0.46418503 0.09180121 1.5280527
-2.5540838 -0.4758367 -0.0015331452 -0.2688012 2.3623798 1.3108882 -1.2978392 -0.64304686
0.5968105 1.71287 2.1611123 -0.9345242 -1.0960644 0.19329111 -0.49139178 -2.7636979
-1.4650861 0.2570885 0.1792371 0.06878378 1.9108887 -0.5239187 2.291225 -1.7000281
-0.2024345 -1.0023265 1.1562192 -1.2360928 0.33537596 0.9458324 1.3312556 -0.99684864
-0.44406244 0.41499496 -0.694816 -1.1748388 -0.36775857 0.5682332 0.08947983 -1.5223364
-1.3419209 -0.40524706 3.3602824 1.0360986 -0.24946332 -0.70927745 -0.85139704 1.5329113
-0.7054039 0.56936383 1.2731445 -0.9732311 -0.54873896 0.11491594 -1.0186942 -1.5395828
-1.0854971 -0.83188367 0.53880674 1.050981 -0.38780156 -1.3236432 -0.046755146 1.2197429
-0.15093601 0.84336644 1.6424853 -0.61488575 -0.42868042 0.079826094 0.6888082 1.6383214
1.1019214 0.36295268 1.4788707 0.32696143 1.0346186 -0.31101453 1.6767851 -0.3334328
-0.8626193 -0.2722632 1.637008 0.79823554 0.6036357 -0.9146329 -1.0576367 -1.2253153
-0.05555996 -0.40441835 -1.341561 0.38295394 -0.19294275 -2.0626566 0.014237365 0.47671133
1.9314024 1.771341 -1.3071622 -0.35679764 1.4860086 0.07029675 -1.3281565 -0.358934
0.5620435 -0.3307618 -0.31989437 -0.41646203 0.20668608 -1.1559361 -0.18431728 -0.66137516
2.575736 0.88054127 0.3189588 1.5021222 -1.6344848 -0.14979234 -0.27025855 1.2442411
-0.48392764 -0.6893361 0.14150944 -2.1008544 -0.07001927 0.18835412 -0.5983084 0.55703807
1.2410783 0.33928713 -0.66185945 -0.8022016 1.4871619 2.3283136 -0.5574343 0.54592407
0.84175557 1.0167338 0.8986518 -1.581469 0.5516259 0.3123641 1.0995306 0.1987512
0.067207806 -0.019501133 1.0151464 -2.260695 -0.41307825 -0.7481793 1.5574131 -0.037434194
1.7707838 -1.9488944 1.0297202 1.5062435 0.896827 -2.026407 1.7733711 -0.59897345
-1.4424067 1.5121735 0.7459136 -0.6695277 0.9722476 -1.8033925 2.4874725 -2.6046507

emb_layers.1.weight f4 [6, 3]
00000000: 0e51 5c3f 6a17 ffbf 081f 47bf 9539 0640
00000010: 4b28 5ebf 8415 a4bf d859 2b40 fcd0 8bbe
00000020: 5bd5 95be 4a9a 91be 92d5 fcbf 897b f0bf
00000030: b5af 763e 6caf f0bf c451 23bf dff6 ad3e
00000040: 1414 e3bf 4799 a6bf
0.8606118 -1.992902 -0.77781725 2.0972645 -0.8678023 -1.2819066 2.6773586 -0.2730788
-0.2926434 -0.28438026 -1.9752676 -1.87877 0.24090464 -1.8803535 -0.6379664 0.3397741
-1.7740502 -1.3015527

emb_layers.2.weight f4 [468, 50]
00000000: c948 ebbc fc9e dbbf 2fb8 f63e 913b 643f
00000010: e1fd 103f b84e 15bf 15a9 683f 361e 53bf
00000020: a350 5abe 6ee3 dcbf 3fe0 c73f dea6 223e
00000030: be6e 8d3f 3bc3 3a40 29a4 1440 b0a7 3e3f
00000040: b556 80bf 12c6 7d3f a91b f6bf 9e06 863f
00000050: 848c 23c0 f0d5 9d3e 20af b23d 1030 a8be
00000060: 5522 1040 b765 6a3f 78fd f4be e646 363d
00000070: d9ba 823d 7019 f63e 1371 2dc0 b7da 453d
00000080: 8482 4cbe dff4 f13f 9bf4 0ebf 71d7 39bf
00000090: e229 e9be 4769 5f3f 5e20 553e a97a 923f
000000a0: 435e bfbe 3774 0f3f e81f 8f3e 3adf 373f
000000b0: 5708 fabe 5b31 183f 5ceb a63e 7c12 91be
000000c0: 9bb8 aebe cb2e 72be 45d6 1a3f 7d4f 65be
000000d0: b057 323f ce3d 1dbf 5d80 f0be 0423 7a3e
000000e0: 11e1 3abf 9965 c6be 1bc1 d23e 39f1 853e
000000f0: e8c0 bfbe aea9 fe3e a97e 93bf 1d85 a8bf
00000100: cba7 3cbf 85e6 c43d 9193 983d 2386 6ebe
00000110: 62a0 7d3f 7bf2 8a3e 957f 193f 9da6 4e3e
00000120: 6077 c33d 9d1e 49be dcc3 93bf 2fab 973e
00000130: a355 33be 55f9 00c0 dafd 22be cea4 e0be
00000140: 4ad9 b03f 8906 b73e a85b 323e 6cc6 f03f
00000150: 9592 613f 283f 563e 64e1 f53e 659c 1540
00000160: ad44 063f d50b 49be fdc7 f8bd 1e74 3cbf
00000170: 561a d5be 3f16 0c3f 7bf3 8dbf 9f9e 80bd
00000180: a9a3 8cbe 59e5 b03c 0fcc 0c3f d285 2dbf
00000190: 0985 e03f 4002 79bf 853b 97bf f881 ce3f
000001a0: e1f6 e93f 8be7 31bf 8631 8a3f 5e41 90be
000001b0: 135b 283f e0e3 673f 5c82 87be 7327 e43d
000001c0: 36dc 66bf 0918 c23e 1e21 16bf c7cc 98bf
000001d0: 6ca7 7e3e 4264 8bbf 0789 e03d 4259 be3f
000001e0: afe9 91be 556e 15bf 0b57 ab3f 4bf0 9fbf
000001f0: 96cd e7bf 5539 d4be 0e85 22bf 9af4 073f
00000200: df81 2dbe 27a3 c53e 43a1 c3bf 9116 2d3f
00000210: f955 ea3f 0a1c 9abf 4b94 713f c852 bf3e
00000220: 5144 373e 50eb 80bf bc26 9a3f e539 373f
00000230: cb95 fd3f cde5 603f cfee 8dbe 380c 4dbf
00000240: baab 7dbf fabd a7bf 488f 4c3e 21a7 2dbf
00000250: d954 e53e 2fc6 36bf 757b 6cbf 6c68 9cbe
00000260: 3238 623f 00c1 1dbf b0d0 d5bc 1cea 28bf
00000270: 8798 873f 4d15 a03f 94bc 59bd 8c49 a93f
00000280: 8393 00be 8044 d43e be33 8bbe 53f2 b4bf
00000290: 1203 9b3e cd62 b03f 86c1 143f ec6d 08bf
000002a0: 862b 1b40 6550 233f 7c3e 27bf f129 71bf
000002b0: 9d46 96be 5e60 bdbe e104 07bf ae4c d0bf
000002c0: 96c6 d4be df33 623f 35ab 0b3f a62c 973e
000002d0: 1441 85be 15ee ec3e e1fd fe3e 2124 00bf
000002e0: a392 83bf 4f8a df3f bcc6 0f3f 12d1 e03f
000002f0: 5232 473e d15b 6bbf 133b 3d3e c0c2 5fbe
00000300: 2bfa 2fbf 1977 5fbf 2d7d 133f 370c a83f
00000310: ad3d d13e 421c 083e ba17 6f3f 55e0 fd3f
00000320: f992 f0be d963 c2bf f725 c43e 922f 09c0
00000330: f5cc b03f 9ada 3a3f cb66 8cbf f362 d8bd
00000340: cc83 57bf 6a6f 1fbf 6ce9 c3bf ac4e 74bd
00000350: b95a 683f 044d 04bf 4ccf ddbe 3a3d 8e3f
00000360: 9f0c 0040 0ec9 9cbf 56a1 593f 73b6 993f
00000370: ed60 7cbf 4acd 8cbe 9890 ae3f 6708 093f
00000380: 794d b73e a418 eabf dbc8 09bf 0261 983f
00000390: 8b8b 253f d610 ffbf 7d9f eebe dd9d 1040
000003a0: 5dec 29bf 8a98 bcbf cc2e babf d273 32bf
000003b0: 2ee2 9f3e f83a 063e b831 633f 64c6 cd3e
000003c0: a984 f63d 8445 3ebe dafd bb3e 1df4 0a3e
000003d0: 69dc 643f 3d8b 95bf 04ef afbf 9524 16be
000003e0: 2e5c 623f fb35 71bf fda8 7e3f c3cc 97bf
000003f0: 7b6c 0f3f a918 28c0 020f 60bf 4793 79bf
-0.02872123 -1.7157893 0.48187396 0.8915339 0.5663739 -0.5832324 0.90883 -0.82467973
-0.21319823 -1.7256906 1.561531 0.15883967 1.1049421 2.918166 2.3225195 0.7447462
-1.0026461 0.99130356 -1.9227191 1.047077 -2.5554514 0.30827284 0.08724809 -0.3284917
2.2520955 0.91561455 -0.4784963 0.044501208 0.063832946 0.48066282 -2.7100265 0.048304286
-0.19971663 1.8902854 -0.5584199 -0.7259436 -0.45539767 0.87270015 0.20813128 1.1443683
-0.37376603 0.56036705 0.2795403 0.7182499 -0.48834488 0.5945031 0.3260144 -0.28334415
-0.34125218 -0.23650663 0.604832 -0.22393604 0.6966505 -0.6142243 -0.46972933 0.2442742
-0.72999674 -0.38749388 0.41162953 0.261606 -0.37451863 0.4973883 -1.1523029 -1.3165623
-0.7369353 0.096142806 0.07450021 -0.23293357 0.9907285 0.27138123 0.599603 0.20180745
0.09544253 -0.19640584 -1.1544147 0.2962279 -0.17513137 -2.015218 -0.15917149 -0.43875736
1.3816311 0.35747173 0.17417777 1.8810554 0.8811429 0.2092253 0.48023522 2.3376706
0.5244854 -0.1963342 -0.1214752 -0.7361468 -0.41621655 0.54721445 -1.1089929 -0.062802546
-0.27468613 0.021593736 0.5499887 -0.6778232 1.7540599 -0.9726906 -1.1815039 1.6133413
1.8278466 -0.6949393 1.0796363 -0.2817487 0.6576397 0.90582085 -0.26466644 0.11140337
-0.90179765 0.37908962 -0.5864428 -1.1937493 0.24868554 -1.0889971 0.10963636 1.4870989
-0.284986 -0.5837148 1.3385938 -1.2495207 -1.8109615 -0.4144999 -0.63484275 0.5310761
-0.16944073 0.38601038 -1.5283588 0.6761256 1.8307487 -1.2039807 0.943669 0.37367845
0.17897154 -1.0071812 1.2043071 0.71572715 1.9811338 0.8785065 -0.2772126 -0.8009677
-0.9909016 -1.3104851 0.19976532 -0.67833143 0.44791296 -0.71396154 -0.9237588 -0.30548418
0.88367 -0.6162262 -0.026100487 -0.6598222 1.0593423 1.25065 -0.053158358 1.322557
-0.12556271 0.4145851 -0.27187914 -1.4136451 0.3027578 1.3780152 0.58107793 -0.5329273
2.4245315 0.6379455 -0.6532972 -0.9420462 -0.2935075 -0.36987585 -0.5274182 -1.6273401
-0.4155776 0.883604 0.54558116 0.29526252 -0.26026213 0.46275392 0.4980307 -0.5005513
-1.0279125 1.7464083 0.5616262 1.7563803 0.1945279 -0.91936976 0.18479566 -0.21851635
-0.687411 -0.87291104 0.5761288 1.3128728 0.40867367 0.1329203 0.9339558 1.9834086
-0.4698713 -1.5186721 0.38310215 -2.1435285 1.3812548 0.7298981 -1.096887 -0.10565748
-0.8418548 -0.6227938 -1.530561 -0.05964534 0.9076343 -0.51680017 -0.43322217 1.1112435
2.0007703 -1.2248857 0.85011804 1.2008804 -0.98585397 -0.27500373 1.3637877 0.53528446
0.35801294 -1.828877 -0.53822106 1.1904604 0.6466605 -1.9927013 -0.46606055 2.2596352
-0.66376287 -1.4734051 -1.4545531 -0.6970798 0.3122725 0.13108432 0.8874774 0.40190423
0.12037022 -0.18581206 0.3671711 0.13569684 0.8939882 -1.1683117 -1.3744817 -0.14662392
0.88421905 -0.9422299 0.99476606 -1.1859363 0.56024903 -2.6265051 -0.875229 -0.9749035

fc.0.weight f4 [128, 73]
00000000: 22f0 9e3e 0619 eabb 7afc b6be 355a 19bf
00000010: a595 dd3e 1cc4 2a3e b1e3 193f a2c2 26bf
00000020: 6fb0 b63e 93ce d63e 9d0e ca3e 783b 64bf
00000030: b667 ca3e 2b0b d2be f612 233e ac27 1f3f
00000040: 1916 0d3e 8e74 54be cbd0 fd3e cac6 4abf
00000050: 9fb1 26bf 5afa 01bf e3bc d53d e367 023f
00000060: ffb7 3bbe aba5 8fbc 0b9f cf3e 5c22 1fbf
00000070: 00cf 893e 2500 37be ba9c 2c3f 344f 0cbf
00000080: fbe2 84be e5bc 25bd 9db6 cbbe 36f4 0f3f
00000090: 9766 0fbe 66a0 d03e a722 00bf 48f5 78bd
000000a0: 66d9 083f f7bb f73e f2f0 66bf e281 2dbe
000000b0: 82f7 86bd 4ea4 d5bd ea51 e43e bec0 d7be
000000c0: 71c8 7fbe d0b4 18be e6fe d13e f33b ae3e
000000d0: abf3 84bc 5c8a 59be 765b 46be 2217 3ebe
000000e0: 6d8b 353f e87f f13e 549b ce3e 3f3b 19bf
000000f0: 3ce4 fb3e 042b 8cbe 14aa 0f3f ee5d 713e
00000100: 4c4c 4b3f de87 e4be 4a22 58bf 1c53 22bf
00000110: 325f 80be b208 8c3e 0d8c b83e 262a 28c0
00000120: 3cd0 d03e 0c7c cabc a02a 713e a85e a5bf
00000130: af34 29bf 1088 ca3e 2e13 16bf 3473 273f
00000140: 2610 dabe b9da d63e 5151 0d3e 7ac6 693f
00000150: 7aef 16bf 5c23 dcbc bf35 6bbe a1c9 eabb
00000160: e47d f4bd 1cd6 913f 2b27 30bd a549 af3e
00000170: 76e9 943e 9f7c 483d 0915 67bf 9160 b73e
00000180: 140d 4a3f 318b 3cbf d470 babe fd69 ff3e
00000190: 1c10 23bf d258 c23e bc3b f43c 4a0d f63e
000001a0: de20 99be 80fa 17bf 4216 5b3f 3aec 08bf
000001b0: 5bc7 d43e 08ea e33d b7e0 d13e f2cb 68be
000001c0: c392 aebe 3b99 703f 0137 b53e 517b 6fbf
000001d0: 0e9c 66be 34ce c73e 040d 98be bb1c 133f
000001e0: 9d52 a8be a831 a8be f4b3 f0be a731 9a3e
000001f0: c36f 323f dbef ca3d 298a 9e3e 74aa 29bf
00000200: b5fb a2bd ee12 c73e 2cd6 1d3d 8c00 0f3f
00000210: 5272 d5bd 3a1c 1e3f 0bd9 15bf 0893 7d3f
00000220: c99d 8c3e a969 523f 3003 25bf 05de cfbe
00000230: f8d2 c6be 58b2 dabe 85ef f43e 094d 0b3f
00000240: 70c1 7ac0 9b73 80bf 83b6 423e e3fa ff3c
00000250: 3089 57bf d705 31bf 8e2f 403f 92c7 6ebd
00000260: cc82 113f b461 0ebf 2df4 c73e 968a 873e
00000270: c457 183f 2ca0 4ebf ef0e 373e 8e4d a9be
00000280: 3feb 14be 0316 b23e 98c0 113f 8227 a9bd
00000290: 662f 833e 2fd5 b2be 6dbb 5abe 5292 3bbf
000002a0: 347e 24be 2a32 ea3e a0ea c0be dee9 a6be
000002b0: 7580 aa3e 921c 0cbf a5b0 1c3e d92c b03c
000002c0: b01a 533f 7483 a4be 1536 1dbf 9338 273f
000002d0: 4d22 d4be d625 1c3f c610 683d 1e49 143f
000002e0: 0c18 413c 2e4e 0cbd c552 203f 3aae 1f3f
000002f0: 61ef 32bf 3105 a3be ce8c b93d c1f3 f9bc
00000300: 7bc8 473f a232 6e3d 4457 55be ea83 55bf
00000310: 6b3c f13e 7ecd d93e a3f8 b23e 1a05 9abe
00000320: d06f 35bf 6eb4 06bd ab33 053f d2f1 263f
00000330: 8a02 d93e 02f6 fabe 68c7 8c3e 19b0 89bc
00000340: 64ab 8b3f 11b8 d53e 6476 4a3f 1098 f9be
00000350: 0ea7 c1be efe5 23bf 05a4 70be e4c0 853e
00000360: cdaa 3abd a820 7bc0 122a 5c3f 03c3 193f
00000370: d65d cdbd 624a d03e 1a4d 11bf 5457 013f
00000380: 009d 2a3f c980 563f b249 7dbf d2c5 3c3f
00000390: c5f1 113f 78d4 c8be 6e4f 12bf 1320 133f
000003a0: 978f e3be e072 65be e020 603f 665b 08bf
000003b0: d06a 56bf 7702 7a3f f813 b2bf 94a6 96bf
000003c0: ac4a 0bbf db05 843e 661c 7e3e f284 a9be
000003d0: 1e7f 14be 66da e53e 87f6 0abf ef83 d8bd
000003e0: c9e1 2bbe db6f 2d3f 41e7 d1be 1d5b 9cbe
000003f0: 3ca1 ac3d f411 69be 2fd6 1e3f 1a61 e2be
0.31042582 -0.0071440963 -0.357395 -0.5990327 0.43278232 0.16676372 0.60113055 -0.65140736
0.35681483 0.4195448 0.39464274 -0.8915324 0.3953225 -0.41024145 0.15925202 0.6216991
0.13777961 -0.20747587 0.4957336 -0.7920958 -0.6511478 -0.5077263 0.10436418 0.5093977
-0.18331908 -0.017535051 0.40551028 -0.62161803 0.2691574 -0.17871149 0.67426646 -0.54808354
-0.25954422 -0.040463347 -0.3978776 0.5623201 -0.14003979 0.40747374 -0.50052875 -0.060780793
0.53456724 0.48385593 -0.90211403 -0.16944078 -0.06590177 -0.10431729 0.44593745 -0.42139238
-0.24978806 -0.14912724 0.41014785 0.34030113 -0.016229471 -0.21244186 -0.19370827 -0.18563512
0.7091587 0.47167897 0.4035288 -0.5985603 0.49197567 -0.27376568 0.56118894 0.23570988
0.79413295 -0.44634908 -0.8442732 -0.63408065 -0.25072628 0.27350384 0.3604435 -2.6275725
0.4078387 -0.024717353 0.23551416 -1.2919512 -0.66096014 0.39556932 -0.58623016 0.6541016
-0.42590445 0.41963747 0.13800551 0.91318476 -0.5895916 -0.02687233 -0.22969721 -0.0071651493
-0.11938074 1.1393466 -0.043006103 0.34235874 0.29084367 0.048946973 -0.9026647 0.35815862
0.78926206 -0.7364989 -0.36414206 0.4988555 -0.63696456 0.3795839 0.02981364 0.48057014
-0.29907888 -0.5936661 0.8558084 -0.53485453 0.41558346 0.11128622 0.40991756 -0.22734049
-0.34096345 0.9398381 0.35393527 -0.9354754 -0.22520468 0.39024508 -0.2969743 0.57465714
-0.3287553 -0.32850385 -0.47012293 0.30116007 0.69701785 0.0990903 0.30964783 -0.66275716
-0.079581656 0.3888163 0.03853433 0.5586021 -0.104221955 0.6176182 -0.58534306 0.99052477
0.2746413 0.82192475 -0.6445799 -0.40599075 -0.3883283 -0.4271419 0.4783899 0.5441442
-3.9180565 -1.003528 0.19014935 0.031247562 -0.84193707 -0.69149536 0.7507256 -0.058295794
0.56840205 -0.55617833 0.3905348 0.2647292 0.5950892 -0.8071315 0.1787679 -0.33066982
-0.14542864 0.3478242 0.569345 -0.08259489 0.256221 -0.3492827 -0.2136056 -0.7327014
-0.16063768 0.45741397 -0.37679005 -0.32600302 0.3330113 -0.54731095 0.1530176 0.02150576
0.82462597 -0.3213154 -0.6141065 0.653207 -0.4143242 0.60995233 0.05665662 0.5792407
0.011785518 -0.034254245 0.62626296 0.62375224 -0.69896513 -0.31839898 0.090600595 -0.030511739
0.78040284 0.058153756 -0.2083407 -0.8340441 0.47116408 0.4253959 0.3495532 -0.30082017
-0.7087374 -0.032886915 0.52031964 0.6521274 0.4238475 -0.49015814 0.27495885 -0.016807603
1.0911679 0.41741994 0.790869 -0.48748827 -0.37822765 -0.64022726 -0.23500068 0.26123726
-0.045573045 -3.9238682 0.86001694 0.6006319 -0.100276634 0.4068175 -0.5675827 0.5052388
0.66645813 0.8379026 -0.98940575 0.7373935 0.57009536 -0.392246 -0.5715245 0.57470816
-0.44445488 -0.22407103 0.87550163 -0.5326446 -0.8375673 0.9766001 -1.3912344 -1.1769586
-0.54410815 0.25785717 0.2481552 -0.33109242 -0.14501616 0.44893187 -0.5428242 -0.10572039
-0.16785349 0.677488 -0.40996745 -0.30538264 0.084291905 -0.22760755 0.6204557 -0.44214708

fc.0.bias f4 [128]
00000000: e2d3 383f 94c3 0a3e 62a2 9e3e 9aa3 9e3f
00000010: 77f2 7b3f 6d85 893f 1ee8 7e3f 27d4 793f
00000020: 3420 9d3f 0711 a53e 5229 923f 9e20 4a3f
00000030: a165 733d 3898 af3e 542f 583f 67b0 a63e
00000040: 730d 883e c7bc 743e 5e41 173f 1a15 a23f
00000050: ee5e 6a3f 038f ab3f 69c5 0b3f be52 843f
00000060: 3202 993f b358 a53f d95c 853e 19bd d13e
00000070: ea71 4f3e 0c33 883f 65da 8b3f b0bd 8d3f
00000080: b31a a43e 041a 713e 4f8e 8b3e e7cc 443d
00000090: c94e 723f e67c 653f 4f1c 463f e280 f63e
000000a0: 2429 c53e 63ce 1c3f 876d a03f dcc3 603f
000000b0: 1b03 353f 80d5 1d3e cc33 fd3e 7df5 a03e
000000c0: be7d 7f3f 931b 9e3e 0aed 8c3f cd48 333e
000000d0: 776b 373f f7af 403e 2157 893f 7be1 8e3f
000000e0: 2159 e73e 55ba 143f 69db 913e 0a0b 093f
000000f0: 4c33 ca3e f0f3 6b3f 9e7d d43d c263 3a3f
00000100: b744 7c3e d01a a53e dfeb 7b3f 8d28 c63e
00000110: fc81 9d3f 4bf3 c63e 156b 843f e455 fc3e
00000120: aff8 9e3e 43b3 dc3e a717 603f 064b 6d3f
00000130: f267 a03f 6ba0 043e ff59 a43e b7bb 653f
00000140: 6040 813f 498e c13e 1958 6c3f 4525 983f
00000150: 4f8a 9c3f f43b 093f c14e 563f 6b15 f73e
00000160: c2fe 2a3f 793a 263f 737f 963f 3ad9 ca3d
00000170: 8f8f 683f bf2f 2d3f 8f36 ea3e 296a 193f
00000180: 2c86 bb3e 5dea 513e e7db 993f 3231 883f
00000190: 1bce 793e ff43 693f 6314 7d3f d8da bf3d
000001a0: b122 353f e83c 813f a62a 7d3f d0f5 7f3f
000001b0: ae00 7f3f 4a4b a23f 3ce1 673f 43bf 0e3e
000001c0: 217d 5c3f a7d2 283e d9b8 443f 5d94 463f
000001d0: 6de8 4f3f e7e1 533f bb41 b03e 3f68 bc3e
000001e0: fc2a 863f 560c 843f 19b3 8a3f 45eb 563f
000001f0: 256b 5d3f 1616 123f f700 443d c734 733e
0.7219831 0.1355117 0.30983263 1.2393677 0.98416847 1.0743843 0.9957293 0.97589344
1.2275453 0.32239553 1.141886 0.7895602 0.059423093 0.3429582 0.84447217 0.3255646
0.2657276 0.23900138 0.5908412 1.266269 0.915511 1.3403019 0.545981 1.0337751
1.1953795 1.2917694 0.260474 0.40964583 0.20258299 1.0640578 1.0926024 1.1073513
0.3205162 0.2354508 0.2725701 0.048046973 0.94651467 0.89643705 0.77386945 0.48145205
0.3850795 0.6125242 1.2533425 0.8779886 0.70707864 0.15413475 0.4945358 0.31437293
0.9980124 0.30880412 1.1009839 0.1750824 0.71648353 0.18817125 1.0729715 1.1162561
0.45185187 0.5809682 0.2848771 0.5353247 0.3949226 0.92169094 0.10375522 0.7280847
0.24635588 0.3224702 0.98406786 0.38702813 1.2305293 0.38857493 1.0345179 0.4928428
0.31049106 0.43105516 0.8753609 0.926926 1.2531722 0.1295182 0.32099912 0.89739555
1.0097771 0.37803867 0.92321926 1.1886374 1.2229708 0.53607106 0.8371392 0.48258528
0.6679498 0.6493297 1.1757644 0.09904714 0.90844053 0.6765098 0.4574475 0.5992761
0.36625803 0.20499559 1.2020234 1.0640013 0.24395029 0.9111938 0.9885923 0.09367913
0.7075606 1.0096712 0.988932 0.99984455 0.9961041 1.2679226 0.90578055 0.13940148
0.8612843 0.16486607 0.76844555 0.77570134 0.8121403 0.82766575 0.34425148 0.36798283
1.0481868 1.0316265 1.0835906 0.8395274 0.86491615 0.5706495 0.047852483 0.23750602

fc.2.weight f4 [64, 128]
00000000: 2ae9 603f b884 a93f 5953 9e3f 4d57 613f
00000010: 2b8f 503f d0e3 373f 4958 643f f9a5 463f
00000020: 178c 523f 49b2 803f 2e63 573f f6b4 743f
00000030: 3093 ae3f dc2a 8b3f d17d 593f aa0a ae3f
00000040: 99c7 8e3f 483a 9f3f 6035 423f 314c 343f
00000050: 42be 393f 9aab 573f 4354 6f3f 351e 463f
00000060: d95b 483f 7918 4a3f 4312 b83f 3061 733f
00000070: 9a2b ac3f 9c04 5e3f 8eb8 593f 2721 4e3f
00000080: 61be 953f 21d2 c33f 0db9 843f 7ef1 ab3f
00000090: ba90 553f e390 523f a007 5f3f c32b 8b3f
000000a0: 5cd9 8d3f b448 583f e018 423f 5c7f 573f
000000b0: 687b 763f 1ebd 893f 24f5 613f 2cc0 8b3f
000000c0: 441c 5a3f 3097 993f 5edb 4f3f 6b4f bb3f
000000d0: 7c46 5b3f c472 9e3f a9b3 443f 42db 573f
000000e0: 5727 a43f 223e 3f3f 1758 b53f 3ebc 613f
000000f0: 1cdd 7c3f a6f1 583f b350 b13f d8b6 453f
00000100: ecb1 8c3f ed65 833f 43ff 463f 78f5 883f
00000110: a13d 613f 0b0a 813f 105e 373f 02ca 773f
00000120: 70a7 a53f 1229 833f 1cc0 503f bc11 443f
00000130: acf5 6d3f 9f19 b43f ec6a 8d3f e20d 5e3f
00000140: 8d86 563f 1670 763f e684 283f dcfe 463f
00000150: 3ad7 4e3f 115f 4e3f 9b0a 5f3f 8c18 663f
00000160: a5d5 423f 7b97 813f 6f07 603f 0a5e a93f
00000170: 78f8 443f f73d 433f 9fba 5b3f 7768 823f
00000180: db7d 733f 7d25 963f f970 3e3f 8f9e 393f
00000190: 4d6a b03f 8a67 563f 1d69 613f e7e2 cd3f
000001a0: 3def 593f c2cf 653f af80 583f 56dd 5e3f
000001b0: 3564 4b3f 4560 543f f088 673f fe91 a63f
000001c0: 20e4 513f 4607 b63f 40cb 5e3f 71e3 5e3f
000001d0: 5108 5b3f 12f0 5a3f 66ad 753f 10e2 9c3f
000001e0: bc6b 4f3f ce3e 603f 4b0a 4a3f 6648 433f
000001f0: 8147 323f 998b 553f 2f0c ae3f ce6d 9f3f
00000200: 9e63 663f c88c b33f e955 b13f 02df 653f
00000210: 05b7 5d3f e7ac 423f 492a 5f3f d6f7 6f3f
00000220: e320 693f c9b2 883f 01fc 413f 7628 833f
00000230: c6dc ab3f e9f3 803f a721 443f d0b8 993f
00000240: bbae 973f 5976 a13f 6589 563f e828 583f
00000250: 7c13 603f 0ef7 4b3f ec0f 803f 6f37 693f
00000260: 44cb 6d3f 5335 4c3f c0fe ba3f 339b 713f
00000270: 1276 a03f 5fec 4b3f f094 533f 952e 6f3f
00000280: 8a61 993f bfdc ba3f 081d 933f ae14 a73f
00000290: a2af 563f 141a 443f 75b9 523f 7b09 733f
000002a0: 17f3 8b3f 40f4 473f 3431 4b3f ee29 5f3f
000002b0: ca62 763f 3d69 923f d23a 793f 3c8e 893f
000002c0: df55 613f 6be4 9d3f bebc 543f 13e5 c23f
000002d0: 705b 3d3f 7fc6 a23f 338b 4f3f b4b0 4f3f
000002e0: c252 9c3f 1ec0 503f 7a98 a53f 1c20 703f
000002f0: d585 8e3f 235c 463f f1d9 ac3f 5e46 5d3f
00000300: f2e7 933f b942 733f 1f40 473f 74e5 7f3f
00000310: 4853 453f 9e01 903f 9a39 5f3f c240 823f
00000320: eb59 9a3f 180e 743f 1c18 393f 9656 633f
00000330: 1210 4a3f 13e3 b23f c6a9 913f d643 5e3f
00000340: ae2e 4b3f ecb8 773f 806c 563f 7e51 573f
00000350: 0361 613f 9859 5f3f 472b 453f 076c 573f
00000360: 3e3e 6a3f d36b 833f 2311 663f 2627 a73f
00000370: 36bd 3f3f ad19 613f 5334 783f 982a 733f
00000380: e21e 8d3f ba25 a23f 8012 4e3f e74a 473f
00000390: 5714 c03f 86f8 623f e90b 6b3f 2acc ca3f
000003a0: 8919 5d3f da4e 5a3f 6fc3 713f 283e 583f
000003b0: c863 6a3f df9c 673f a40f 4a3f 8b5f a03f
000003c0: 80c7 473f 1ea0 ba3f cff0 413f ac6a 3d3f
000003d0: 0c17 653f 521a 653f 97fe 743f 5884 9f3f
000003e0: 846e 6e3f fd5f 563f 6e82 673f f975 3e3f
000003f0: 98ba 553f e850 493f 8c5a 9b3f 85c4 ad3f
0.8785578 1.3243628 1.2369186 0.88023835 0.81468457 0.7183199 0.8919721 0.77597004
0.8224501 1.0054408 0.8413571 0.95588624 1.3638668 1.0872455 0.84957606 1.3597004
1.1154662 1.2439661 0.75862694 0.7042876 0.72555935 0.8424622 0.9348795 0.7738984
0.7826515 0.7894359 1.4380573 0.9507017 1.3450806 0.86725783 0.85047233 0.80519336
1.1698724 1.5298501 1.0368973 1.3433073 0.8342396 0.8225233 0.8712101 1.087273
1.1081958 0.84485936 0.75819206 0.8417871 0.96282053 1.0760839 0.8826468 1.0918021
0.8519938 1.1999264 0.811941 1.4633611 0.85654426 1.2378774 0.7683664 0.84318936
1.2824506 0.7470418 1.4167508 0.8817786 0.98774886 0.84743726 1.3852752 0.7723212
1.0991797 1.026548 0.7773325 1.0699911 0.87984663 1.008119 0.71627903 0.96792614
1.2941723 1.0246909 0.81543136 0.7658956 0.9295299 1.4070319 1.1048255 0.86739933
0.8379906 0.9626478 0.65827787 0.77732635 0.8079716 0.8061381 0.8712556 0.89881206
0.76107246 1.0124353 0.8751134 1.3231823 0.76941633 0.76266426 0.85831636 1.018813
0.95113915 1.173019 0.7439113 0.72507566 1.378244 0.8375174 0.88051015 1.608487
0.85130674 0.8977014 0.84571356 0.8705648 0.7944978 0.82959396 0.90443325 1.3013303
0.81988716 1.422097 0.87028885 0.870658 0.85559565 0.8552257 0.9596771 1.2256489
0.81023765 0.8759583 0.78921956 0.76282346 0.69640356 0.83416134 1.3597468 1.2455385
0.89995754 1.4027338 1.3854343 0.8979341 0.8660739 0.7604508 0.871739 0.9373754
0.91065806 1.0679561 0.7577515 1.0246723 1.342675 1.0074435 0.7661385 1.2009525
1.1850199 1.2614242 0.838034 0.8443742 0.8752973 0.7967385 1.0004859 0.9110021
0.92888284 0.79768866 1.4608994 0.9437744 1.2536032 0.7965755 0.82649136 0.93430454
1.1982892 1.4598616 1.1493235 1.3053186 0.83861744 0.7660229 0.82314235 0.9493634
1.093356 0.7810707 0.79371953 0.87173355 0.9624449 1.1438366 0.9735538 1.0746531
0.88021654 1.2335333 0.831005 1.5226158 0.7396765 1.2716826 0.81071776 0.81129
1.2212756 0.8154315 1.2937157 0.93798995 1.1134592 0.7748434 1.350401 0.86435497
1.1555159 0.95023686 0.77832216 0.9995949 0.770802 1.1250494 0.8719727 1.0176013
1.2058691 0.95334005 0.72302413 0.88803995 0.7893077 1.3975548 1.1379936 0.8682226
0.793681 0.96766543 0.8375931 0.8410872 0.88038653 0.87246084 0.7701916 0.8414921
0.91501224 1.026728 0.898699 1.3058822 0.7489809 0.87929803 0.9695484 0.9498687
1.102505 1.2667763 0.8049698 0.77848667 1.5006207 0.88660467 0.9181505 1.5843556
0.8636709 0.8527657 0.94438833 0.8446984 0.91558504 0.9047374 0.78930116 1.2529157
0.7803879 1.4580114 0.7575807 0.73990893 0.8948829 0.89493287 0.95700973 1.2462263
0.93137383 0.83740216 0.90433395 0.7439876 0.83487844 0.7863908 1.2137008 1.3575598

fc.2.bias f4 [64]
00000000: 0ff7 bd3f 2159 bf3f bba7 c83f bb1a b83f
00000010: ff66 c43f ec1f af3f 38a8 ca3f 91ae ba3f
00000020: 7d21 c83f 4015 be3f a506 c13f 7d7e ca3f
00000030: dc3f cc3f 3f4f c33f e1b1 ef3f a828 cb3f
00000040: d5a5 c03f 837d c83f 4b90 bd3f baed c83f
00000050: f227 c73f 2197 c53f 6136 c13f 2bc6 b83f
00000060: 17ba bb3f 251c cd3f 7b6a bd3f 2654 cb3f
00000070: 358f c13f 0496 c63f 0411 b53f f48b bd3f
00000080: 0f8c cc3f 15ad c63f 2edd c43f e7d1 3540
00000090: 6279 c53f 0a9e c33f 7ce8 b73f 3223 c33f
000000a0: 5ee9 c13f fc68 be3f 03cc c23f 65df c63f
000000b0: ea48 c83f f679 b73f 4ab1 ad3f b02b b73f
000000c0: 77c2 cc3f 1b96 c23f 5c36 cf3f ff33 cd3f
000000d0: 2208 9abd 4b78 c53f cbc3 cc3f 3fb5 c23f
000000e0: 80e7 cd3f 346d c63f 1cab e9bd 6fa2 843f
000000f0: dc40 cc3f 80b1 c73f 983c ce3f 53ca c33f
1.4841021 1.4949075 1.5676187 1.4383157 1.5343932 1.3681617 1.5832586 1.4584523
1.563522 1.4850235 1.5080153 1.5819851 1.5956988 1.5258559 1.8726159 1.5871782
1.5050608 1.5663303 1.480966 1.5697548 1.5559065 1.5436746 1.509472 1.4435476
1.4666165 1.6024214 1.479812 1.5885055 1.5121828 1.5514531 1.4145818 1.4808335
1.5980242 1.552157 1.5379999 2.8409364 1.5427668 1.5282605 1.4367824 1.5245116
1.5149343 1.4875789 1.521851 1.5536925 1.5647252 1.4334095 1.3569729 1.4310207
1.5996846 1.5202059 1.6188464 1.6031493 -0.075210825 1.5427336 1.5997251 1.5211562
1.6086273 1.5502076 -0.1140959 1.0362071 1.5957294 1.5601044 1.6112242 1.529612

fc.4.weight f4 [32, 64]
00000000: 828c e43c b410 093d e4a9 04bb 12b5 c4bc
00000010: 5212 4cbd 0e26 37bd 7a96 bd3d 2f11 8abd
00000020: 5c63 1abd ee52 13bc 7c0a 85bc 0521 aabd
00000030: 7c7e e23c 3e18 6d3d 2d62 d3bd ae13 e6bc
00000040: 89eb b03d 7c05 0dbe c4ae bbbd cb12 34bd
00000050: 43ca c33d cfd2 893c 7c09 64bd 9963 c33c
00000060: b885 db3b b7d9 5f3d 9733 8f3c c0e7 b5bd
00000070: 4aa2 9f3d 34aa 913d a7a8 843d 2563 20bd
00000080: 61a6 1d3c 8049 363d 111d 193c 3283 ed3c
00000090: 97ea d33d 011d 603d 6de8 a4bd d206 5e3c
000000a0: cc1b 013d 7eb7 cc3d 91df f3bd 3abb 753d
000000b0: 6306 263d 5e07 f43b 99fe 83bd bf68 72bd
000000c0: b832 15be a584 81bb e42a 623d fdb8 7e3d
000000d0: 1071 9fbd d6db e4bd 6116 843d d3a9 bc3b
000000e0: f6c1 94bc fc74 693d 42c4 963d d3b4 f8bd
000000f0: 2969 823d 7c1c 233d 09ca b0bd f33b bbbd
00000100: 1ab6 873b 1798 4cbd 42d1 81bd 8336 9c3d
00000110: 2fea 1dbc fc2d b83b cba5 913d 87c7 913d
00000120: 6653 f53b 9d7f 583d bbf3 17be 1e81 c0bd
00000130: 9545 efbd ad7b 8abd 8d52 50bd 2025 853c
00000140: 64b5 893c 0523 8e3d ba27 a0bd a0c0 0bbe
00000150: 6c69 46bc be41 0fbd 227b f93c 8f9d ca3c
00000160: e5ed fbbd ea07 cdbb 01f8 36bd 3843 f03c
00000170: e8ab 0dbe a48e 46bd 7e54 453d 37b9 613d
00000180: f0d0 2c3d 537b a6bd eb79 c4bc 99ec 05be
00000190: 788b 5ebd 5cc6 983d ac6c cfbd b044 97bd
000001a0: 212a cd3b fb8b c2bd b309 5b3d 3596 b3bd
000001b0: 8491 d0bd 0fbb 9c3d e43b 543d d38d 6c3d
000001c0: 9709 6cbb 2759 5dbd 2d25 a4ba 01e3 7c3d
000001d0: c272 0ebe b8f9 87bd 9d6a 283b d0ef bd3c
000001e0: c63b 933c 3752 d63d dc7b 7c3d 97cc 9b3c
000001f0: d3b1 32bd e3c8 013d e374 6d3d 21c0 833d
00000200: 82af 803f c587 5e3f c034 643f 8d5f 8a3f
00000210: cba2 893f cbf9 7b3f 6c2c 643f 11b2 4a3f
00000220: b643 673f be06 6f3f 3cbd 843f c3bf 793f
00000230: a21f 8a3f 7da3 873f 3bba 143f 419c 893f
00000240: 2c4d 5f3f f337 693f d8df 843f d865 8d3f
00000250: e734 713f 573d 793f be94 7c3f 5926 d43e
00000260: 11ce 733f 326a 763f d7ae 3b3f e811 7b3f
00000270: c3e5 6b3f 27cc 893f 37aa 633f 726f 7a3f
00000280: ed0c 883f 4ebd 673f 4d04 8f3f da74 0640
00000290: 51a8 8b3f 147d 673f 8ea2 623f d121 8d3f
000002a0: 0360 6c3f fc56 7b3f c07c 843f ea23 7c3f
000002b0: 93f1 7e3f d929 583f a4a7 353f a6b0 843f
000002c0: e872 863f 0435 683f 0e2a 853f 6dd7 723f
000002d0: 97fd 94bd 63ca 623f 5174 703f 7e9f 8c3f
000002e0: 7a68 803f 3a56 6c3f 289a 083d 42bb e43e
000002f0: 8e9b 8c3f 0ad8 8e3f 9448 803f 67e8 713f
00000300: 0709 643f cb0c 673f f123 7a3f c219 8c3f
00000310: f670 883f 24d2 483f 1107 7d3f f1bb 373f
00000320: b1ac 7e3f 0a41 843f f93a 753f e061 753f
00000330: 0c86 823f 2f00 863f 9913 053f 43a6 6c3f
00000340: 5345 8a3f 6099 8c3f 74e7 713f 87d8 833f
00000350: 5bbb 883f f61e 8b3f 1058 783f ecc8 b63e
00000360: 3931 603f 0d68 7c3f 16de 343f 997d 833f
00000370: b3dc 383f b143 863f 3b58 843f 0881 8b3f
00000380: 726f 8d3f 76f4 613f 1d03 893f b7b7 ff3f
00000390: 8e65 813f 629a 853f 24a0 783f 6d40 6a3f
000003a0: 0d9c 8e3f e0ec 893f b094 823f 6a6c 6a3f
000003b0: 2279 803f 2c47 673f 088f 1a3f e7c6 703f
000003c0: 8033 8c3f b09b 813f 9047 843f d53d 8d3f
000003d0: e348 063e a1b7 8a3f 29fa 803f 6510 7d3f
000003e0: d0fc 663f c756 803f 0619 fcbc c060 4d3e
000003f0: fdc1 7b3f afc5 7b3f 3090 6d3f deaf 883f
0.02789903 0.033463195 -0.0020242864 -0.024012122 -0.04982216 -0.044714026 0.09257217 -0.06741559
-0.037692413 -0.00899194 -0.01624035 -0.08307079 0.027648203 0.057884447 -0.1032146 -0.028085556
0.08638675 -0.13771623 -0.09164193 -0.043963235 0.09560063 0.016824154 -0.055673108 0.023851203
0.00669929 0.05465099 0.017480655 -0.088820934 0.07794626 0.07112542 0.064774804 -0.03915705
0.009622187 0.04450369 0.009345309 0.028993223 0.10347479 0.05471516 -0.08052144 0.013551431
0.03152065 0.09995936 -0.11907876 0.059993006 0.040533435 0.0074471673 -0.06445045 -0.059181925
-0.14570129 -0.00395258 0.055216685 0.062188137 -0.07785237 -0.11174743 0.06449581 0.0057575493
-0.018158894 0.05699633 0.07361652 -0.121438645 0.06367714 0.039822087 -0.08632285 -0.09142294
0.0041415812 -0.04994973 -0.06338741 0.07627585 -0.009638353 0.005620716 0.071117006 0.07118135
0.0074867485 0.052856077 -0.1483907 -0.09399627 -0.116831936 -0.067618705 -0.050859977 0.016253054
0.016810127 0.06940273 -0.07820077 -0.136477 -0.0121100955 -0.034974806 0.030454222 0.024733333
-0.12301234 -0.006257047 -0.04467011 0.029328927 -0.13835108 -0.048475876 0.04817628 0.055108275
0.042191446 -0.08128991 -0.023983916 -0.13078536 -0.054332227 0.07459709 -0.101281494 -0.07386148
0.0062611257 -0.094993554 0.053476047 -0.08768884 -0.10184005 0.07652866 0.05181493 0.05775244
-0.0036016458 -0.0540401 -0.0012523286 0.061739925 -0.13910964 -0.06639427 0.0025698312 0.02318564
0.017972838 0.104649 0.06164156 0.019018454 -0.043626618 0.03168572 0.0579728 0.0643313
1.0053561 0.8692592 0.8914299 1.081041 1.0752805 0.9842803 0.8913028 0.7917796
0.90337694 0.9336966 1.037025 0.9755823 1.0790904 1.0596768 0.58096665 1.075081
0.8722713 0.91100997 1.0380812 1.1046705 0.9422135 0.9735922 0.9866446 0.41435507
0.9523631 0.9625579 0.7331366 0.980742 0.92147464 1.0765427 0.889316 0.978263
1.0628945 0.9052323 1.1173187 2.100882 1.0910741 0.9042523 0.8852929 1.1025945
0.92334 0.981796 1.0350571 0.984923 0.99587363 0.84438854 0.70958924 1.0366409
1.0503817 0.90705895 1.0403459 0.94859964 -0.07274931 0.8859007 0.93927485 1.0986173
1.0031884 0.9231907 0.03335014 0.44674116 1.0984972 1.115968 1.0022149 0.9449524
0.89076275 0.90253896 0.9771109 1.0945361 1.0659473 0.7844565 0.9883891 0.7177115
0.99482256 1.0332348 0.9579311 0.9585247 1.0197158 1.0468806 0.5198303 0.92441195
1.0802406 1.0984306 0.94493794 1.0300454 1.0682176 1.0868824 0.9700937 0.35700166
0.8757511 0.9859627 0.70651376 1.0272704 0.7221176 1.0489408 1.0339426 1.0898752
1.1049635 0.8826364 1.0704075 1.997794 1.0109117 1.0437739 0.97119355 0.91504556
1.1141373 1.0775414 1.0201626 0.91571677 1.0036967 0.90342975 0.603745 0.940535
1.0953217 1.0125637 1.0334339 1.1034495 0.13113742 1.0837289 1.0076343 0.9885314
0.9022951 1.0026482 -0.03077365 0.20056438 0.9834288 0.98348516 0.9279814 1.067867

fc.4.bias f4 [32]
00000000: 89fb d5bd 903e 893b d20c a43f 6d0e a03f
00000010: bd1e b0bd 4202 8fbd bc05 b83f 730b 973f
00000020: 9c42 9c3f 8079 a53f 33b3 ab3f 84b3 b7bd
00000030: 4e13 b43f a0e0 973f 800f 01bd 133f a63f
00000040: 0cfd 9b3f 13a9 06be 7467 d03c f757 f53c
00000050: 80f0 73bc 3b37 9f3f 5633 bdbd f76f b63f
00000060: 04d4 ad3f 0d16 d73d 4e17 af3f b299 a43f
00000070: 7d11 c6bd bd0b d2bd b501 a13f 3dbb dbbd
-0.10448367 0.0041883662 1.2816412 1.2504402 -0.08599613 -0.069828525 1.437675 1.1800369
1.2207828 1.2927704 1.3414062 -0.08969787 1.4068391 1.1865425 -0.031508923 1.2987999
1.2186599 -0.13150434 0.025439955 0.029949171 -0.014888883 1.243873 -0.09238307 1.4252919
1.3580327 0.10502253 1.3678987 1.2859404 -0.096713044 -0.10256145 1.2578646 -0.10729072

fc.6.weight f4 [1, 32]
00000000: 045c fdbd 9474 4abd adac 8f3f 10cf 923f
00000010: 198b 89bd 5bfe 10be 668d 853f 06f2 963f
00000020: 50c7 923f 4e39 8c3f c5e0 8c3f 14c3 8a3d
00000030: 3357 923f e726 913f 60c1 34bd 1019 833f
00000040: 3444 8f3f 78f4 04be f211 4dbd 8954 8bbd
00000050: 19ee 27be d937 923f 791f 1cbe ae7c 813f
00000060: 6629 8b3f 4fff 763a b49a 8c3f e9d2 833f
00000070: 428b fcbd d3c9 1cbe 46d9 8c3f e7fd cebb
-0.12371066 -0.049427584 1.1224571 1.146944 -0.06715984 -0.14159529 1.0433776 1.179261
1.1467075 1.0954988 1.1006094 0.067754894 1.1432861 1.1339997 -0.04412973 1.0242023
1.1192689 -0.12983882 -0.050065942 -0.06803233 -0.16399421 1.1423293 -0.15246381 1.0116174
1.0872009 0.0009422199 1.0984712 1.029874 -0.12331249 -0.15311365 1.1003807 -0.0063168886
